…
ambda_rec=10, log_dir='stargan_celeba/logs', log_step=50, lr_update_step=1000, mode='train', model_save_dir='stargan_celeba/models', model_save_step=10000, n_critic=5, num_iters=200000, num_iters_decay=100000, num_workers=1, rafd_crop_size=256, rafd_image_dir='data/RaFD/train', result_dir='stargan_celeba/results', resume_iters=None, sample_dir='stargan_celeba/samples', sample_step=1000, selected_attrs=['Black_Hair', 'Blond_Hair', 'Brown_Hair', 'Gray_Hair'], test_iters=200000, use_tensorboard=True)
Finished preprocessing the CelebA dataset...
Running Job on GPU TITAN X (Pascal)
Generator(
  (L1): Conv2d(3, 64, kernel_size=(7, 7), stride=(1, 1), padding=(3, 3), bias=False)
  (L2): ccbn(
    (gain): Embedding(4, 64)
    (bias): Embedding(4, 64)
  )
  (L3): ReLU(inplace=True)
  (L4): Conv2d(64, 128, kernel_size=(4, 4), stride=(2, 2), padding=(1, 1), bias=False)
  (L5): ccbn(
    (gain): Embedding(4, 128)
    (bias): Embedding(4, 128)
  )
  (L6): ReLU(inplace=True)
  (L7): Conv2d(128, 256, kernel_size=(4, 4), stride=(2, 2), padding=(1, 1), bias=False)
  (L8): ccbn(
    (gain): Embedding(4, 256)
    (bias): Embedding(4, 256)
  )
  (L9): ReLU(inplace=True)
  (L10): ResidualBlock(
    (L1): Conv2d(256, 256, kernel_size=(3, 3), stride=(1, 1), padding=(1, 1), bias=False)
    (L2): ccbn(
      (gain): Embedding(4, 256)
      (bias): Embedding(4, 256)
    )
    (L3): ReLU(inplace=True)
    (L4): Conv2d(256, 256, kernel_size=(3, 3), stride=(1, 1), padding=(1, 1), bias=False)
    (L5): ccbn(
      (gain): Embedding(4, 256)
      (bias): Embedding(4, 256)
    )
  )
  (L11): ResidualBlock(
    (L1): Conv2d(256, 256, kernel_size=(3, 3), stride=(1, 1), padding=(1, 1), bias=False)
    (L2): ccbn(
      (gain): Embedding(4, 256)
      (bias): Embedding(4, 256)
    )
    (L3): ReLU(inplace=True)
    (L4): Conv2d(256, 256, kernel_size=(3, 3), stride=(1, 1), padding=(1, 1), bias=False)
    (L5): ccbn(
      (gain): Embedding(4, 256)
      (bias): Embedding(4, 256)
    )
  )
  (L12): ResidualBlock(
    (L1): Conv2d(256, 256, kernel_size=(3, 3), stride=(1, 1), padding=(1, 1), bias=False)
    (L2): ccbn(
      (gain): Embedding(4, 256)
      (bias): Embedding(4, 256)
    )
    (L3): ReLU(inplace=True)
    (L4): Conv2d(256, 256, kernel_size=(3, 3), stride=(1, 1), padding=(1, 1), bias=False)
    (L5): ccbn(
      (gain): Embedding(4, 256)
      (bias): Embedding(4, 256)
    )
  )
  (L13): ResidualBlock(
    (L1): Conv2d(256, 256, kernel_size=(3, 3), stride=(1, 1), padding=(1, 1), bias=False)
    (L2): ccbn(
      (gain): Embedding(4, 256)
      (bias): Embedding(4, 256)
    )
    (L3): ReLU(inplace=True)
    (L4): Conv2d(256, 256, kernel_size=(3, 3), stride=(1, 1), padding=(1, 1), bias=False)
    (L5): ccbn(
      (gain): Embedding(4, 256)
      (bias): Embedding(4, 256)
    )
  )
  (L14): ResidualBlock(
    (L1): Conv2d(256, 256, kernel_size=(3, 3), stride=(1, 1), padding=(1, 1), bias=False)
    (L2): ccbn(
      (gain): Embedding(4, 256)
      (bias): Embedding(4, 256)
    )
    (L3): ReLU(inplace=True)
    (L4): Conv2d(256, 256, kernel_size=(3, 3), stride=(1, 1), padding=(1, 1), bias=False)
    (L5): ccbn(
      (gain): Embedding(4, 256)
      (bias): Embedding(4, 256)
    )
  )
  (L15): ResidualBlock(
    (L1): Conv2d(256, 256, kernel_size=(3, 3), stride=(1, 1), padding=(1, 1), bias=False)
    (L2): ccbn(
      (gain): Embedding(4, 256)
      (bias): Embedding(4, 256)
    )
    (L3): ReLU(inplace=True)
    (L4): Conv2d(256, 256, kernel_size=(3, 3), stride=(1, 1), padding=(1, 1), bias=False)
    (L5): ccbn(
      (gain): Embedding(4, 256)
      (bias): Embedding(4, 256)
    )
  )
  (L16): ConvTranspose2d(256, 128, kernel_size=(4, 4), stride=(2, 2), padding=(1, 1), bias=False)
  (L17): ccbn(
    (gain): Embedding(4, 128)
    (bias): Embedding(4, 128)
  )
  (L18): ReLU(inplace=True)
  (L19): ConvTranspose2d(128, 64, kernel_size=(4, 4), stride=(2, 2), padding=(1, 1), bias=False)
  (L20): ccbn(
    (gain): Embedding(4, 64)
    (bias): Embedding(4, 64)
  )
  (L21): ReLU(inplace=True)
  (L22): Conv2d(64, 3, kernel_size=(7, 7), stride=(1, 1), padding=(3, 3), bias=False)
  (L23): Tanh()
)
G
The number of parameters: 8437120
Discriminator(
  (main): Sequential(
    (0): Conv2d(3, 64, kernel_size=(4, 4), stride=(2, 2), padding=(1, 1))
    (1): LeakyReLU(negative_slope=0.01)
    (2): Conv2d(64, 128, kernel_size=(4, 4), stride=(2, 2), padding=(1, 1))
    (3): LeakyReLU(negative_slope=0.01)
    (4): Conv2d(128, 256, kernel_size=(4, 4), stride=(2, 2), padding=(1, 1))
    (5): LeakyReLU(negative_slope=0.01)
    (6): Conv2d(256, 512, kernel_size=(4, 4), stride=(2, 2), padding=(1, 1))
    (7): LeakyReLU(negative_slope=0.01)
    (8): Conv2d(512, 1024, kernel_size=(4, 4), stride=(2, 2), padding=(1, 1))
    (9): LeakyReLU(negative_slope=0.01)
    (10): Conv2d(1024, 2048, kernel_size=(4, 4), stride=(2, 2), padding=(1, 1))
    (11): LeakyReLU(negative_slope=0.01)
  )
  (conv1): Conv2d(2048, 1, kernel_size=(3, 3), stride=(1, 1), padding=(1, 1), bias=False)
  (conv2): Conv2d(2048, 4, kernel_size=(2, 2), stride=(1, 1), bias=False)
)
D
The number of parameters: 44753856
2020-12-16 08:14:32.207355: I tensorflow/core/platform/cpu_feature_guard.cc:143] Your CPU supports instructions that this TensorFlow binary was not compiled to use: SSE4.1 SSE4.2 AVX AVX2 FMA
2020-12-16 08:14:32.272011: I tensorflow/core/platform/profile_utils/cpu_utils.cc:102] CPU Frequency: 2500030000 Hz
…
